…
  output_dir: output/eeg_spc_cnn_att_stage_1_fold_0
data:
  data_dir: ./data/
  data_type: eeg_spectrogram
  fold: 0
  n_folds: 10
  count_type: all
  batch_size: 32
  shuffle: true
  num_workers: 4
  pin_memory: false
  drop_last: true
config: configs/base_eeg_spectrogram.yaml
mode: unimodal
from_pretrained: null

2024-04-20 22:31:25 [[38;5;39mINFO[0m]: Saving config to 'output/eeg_spc_cnn_att_stage_1_fold_0'
2024-04-20 22:31:25 [[38;5;39mINFO[0m]: Instantiating TrainerArgs
2024-04-20 22:31:25 [[38;5;39mINFO[0m]: Instantiating Model
2024-04-20 22:31:25 [[38;5;39mINFO[0m]: SpectrogramCnnModel(
  (projection): Sequential(
    (0): Conv2d(1, 16, kernel_size=(3, 3), stride=(1, 1), padding=same, bias=False)
    (1): BatchNorm2d(16, eps=1e-05, momentum=0.1, affine=True, track_running_stats=True)
    (2): ReLU(inplace=True)
  )
  (encoder): Sequential(
    (0): ResidualBlock2d(
      (relu): ReLU(inplace=True)
      (maxpool): MaxPool2d(kernel_size=2, stride=2, padding=0, dilation=1, ceil_mode=True)
      (downsample): Sequential(
        (0): Conv2d(16, 32, kernel_size=(1, 1), stride=(1, 1), bias=False)
        (1): BatchNorm2d(32, eps=1e-05, momentum=0.1, affine=True, track_running_stats=True)
      )
      (dropout): Dropout2d(p=0.4, inplace=False)
      (conv1): Conv2d(16, 32, kernel_size=(3, 3), stride=(1, 1), padding=(1, 1), bias=False)
      (bn1): BatchNorm2d(32, eps=1e-05, momentum=0.1, affine=True, track_running_stats=True)
      (conv2): Conv2d(32, 32, kernel_size=(3, 3), stride=(1, 1), padding=(1, 1), bias=False)
      (bn2): BatchNorm2d(32, eps=1e-05, momentum=0.1, affine=True, track_running_stats=True)
    )
    (1): ResidualBlock2d(
      (relu): ReLU(inplace=True)
      (maxpool): MaxPool2d(kernel_size=2, stride=2, padding=0, dilation=1, ceil_mode=True)
      (downsample): Sequential(
        (0): Conv2d(32, 48, kernel_size=(1, 1), stride=(1, 1), bias=False)
        (1): BatchNorm2d(48, eps=1e-05, momentum=0.1, affine=True, track_running_stats=True)
      )
      (dropout): Dropout2d(p=0.4, inplace=False)
      (conv1): Conv2d(32, 48, kernel_size=(3, 3), stride=(1, 1), padding=(1, 1), bias=False)
      (bn1): BatchNorm2d(48, eps=1e-05, momentum=0.1, affine=True, track_running_stats=True)
      (conv2): Conv2d(48, 48, kernel_size=(3, 3), stride=(1, 1), padding=(1, 1), bias=False)
      (bn2): BatchNorm2d(48, eps=1e-05, momentum=0.1, affine=True, track_running_stats=True)
    )
    (2): ResidualBlock2d(
      (relu): ReLU(inplace=True)
      (maxpool): MaxPool2d(kernel_size=2, stride=2, padding=0, dilation=1, ceil_mode=True)
      (downsample): Sequential(
        (0): Conv2d(48, 64, kernel_size=(1, 1), stride=(1, 1), bias=False)
        (1): BatchNorm2d(64, eps=1e-05, momentum=0.1, affine=True, track_running_stats=True)
      )
      (dropout): Dropout2d(p=0.4, inplace=False)
      (conv1): Conv2d(48, 64, kernel_size=(3, 3), stride=(1, 1), padding=(1, 1), bias=False)
      (bn1): BatchNorm2d(64, eps=1e-05, momentum=0.1, affine=True, track_running_stats=True)
      (conv2): Conv2d(64, 64, kernel_size=(3, 3), stride=(1, 1), padding=(1, 1), bias=False)
      (bn2): BatchNorm2d(64, eps=1e-05, momentum=0.1, affine=True, track_running_stats=True)
    )
    (3): ResidualBlock2d(
      (relu): ReLU(inplace=True)
      (maxpool): MaxPool2d(kernel_size=2, stride=2, padding=0, dilation=1, ceil_mode=True)
      (downsample): Sequential(
        (0): Conv2d(64, 128, kernel_size=(1, 1), stride=(1, 1), bias=False)
        (1): BatchNorm2d(128, eps=1e-05, momentum=0.1, affine=True, track_running_stats=True)
      )
      (dropout): Dropout2d(p=0.4, inplace=False)
      (conv1): Conv2d(64, 128, kernel_size=(3, 3), stride=(1, 1), padding=(1, 1), bias=False)
      (bn1): BatchNorm2d(128, eps=1e-05, momentum=0.1, affine=True, track_running_stats=True)
      (conv2): Conv2d(128, 128, kernel_size=(3, 3), stride=(1, 1), padding=(1, 1), bias=False)
      (bn2): BatchNorm2d(128, eps=1e-05, momentum=0.1, affine=True, track_running_stats=True)
    )
    (4): ResidualBlock2d(
      (relu): ReLU(inplace=True)
      (maxpool): MaxPool2d(kernel_size=2, stride=2, padding=0, dilation=1, ceil_mode=True)
      (downsample): Sequential(
        (0): Conv2d(128, 256, kernel_size=(1, 1), stride=(1, 1), bias=False)
        (1): BatchNorm2d(256, eps=1e-05, momentum=0.1, affine=True, track_running_stats=True)
      )
      (dropout): Dropout2d(p=0.4, inplace=False)
      (conv1): Conv2d(128, 256, kernel_size=(3, 3), stride=(1, 1), padding=(1, 1), bias=False)
      (bn1): BatchNorm2d(256, eps=1e-05, momentum=0.1, affine=True, track_running_stats=True)
      (conv2): Conv2d(256, 256, kernel_size=(3, 3), stride=(1, 1), padding=(1, 1), bias=False)
      (bn2): BatchNorm2d(256, eps=1e-05, momentum=0.1, affine=True, track_running_stats=True)
    )
  )
  (pool): AdaptiveAvgPool2d(output_size=(1, 1))
  (node_attention): NodeAttention(
    (attention_layers): ModuleList(
      (0-1): 2 x AttentionBlock(
        (projection): Linear(in_features=256, out_features=256, bias=True)
        (pos_embeddings): LearnablePosEmbeddings(
          (embedding): Embedding(4, 256)
        )
        (attention): MultiheadAttention(
          (out_proj): NonDynamicallyQuantizableLinear(in_features=256, out_features=256, bias=True)
        )
        (fc): Sequential(
          (0): Linear(in_features=256, out_features=1024, bias=True)
          (1): GELU(approximate='none')
          (2): Linear(in_features=1024, out_features=256, bias=True)
        )
        (ln_0): LayerNorm()
        (ln_1): LayerNorm()
      )
    )
  )
  (pool_factor): Linear(in_features=256, out_features=1, bias=True)
  (decoder): Linear(in_features=256, out_features=6, bias=True)
  (temperature): Sequential(
    (0): Linear(in_features=256, out_features=6, bias=True)
    (1): Softplus(beta=1, threshold=20)
  )
)
2024-04-20 22:31:25 [[38;5;39mINFO[0m]: Parameter count: 2984741
2024-04-20 22:31:25 [[38;5;39mINFO[0m]: Instantiating Optimizer
2024-04-20 22:31:27 [[38;5;39mINFO[0m]: Instantiating Dataloaders
2024-04-20 22:31:32 [[38;5;39mINFO[0m]: Training with the unimodal task
2024-04-20 22:31:32 [[38;5;39mINFO[0m]: Starting training!
…
