…
  n_folds: 10
  count_type: upper
  batch_size: 16
  shuffle: true
  num_workers: 4
  pin_memory: false
  drop_last: true
config: configs/base_multimodal.yaml
mode: multimodal
from_pretrained: output/multimodal_stage_1_fold_0/model_final.pt

2024-04-21 09:26:47 [[38;5;39mINFO[0m]: Saving config to 'output/multimodal_stage_2_fold_0'
2024-04-21 09:26:47 [[38;5;39mINFO[0m]: Instantiating TrainerArgs
2024-04-21 09:26:47 [[38;5;39mINFO[0m]: Instantiating Model
2024-04-21 09:26:47 [[38;5;39mINFO[0m]: MultimodalModel(
  (eeg_model): EegModel(
    (ekg_encoder): SignalEncoder50hz(
      (projection): Conv1d(1, 16, kernel_size=(5,), stride=(1,), padding=(2,))
      (downsample): Sequential(
        (0): ResidualBlock1d(
          (relu): ReLU(inplace=True)
          (maxpool): MaxPool1d(kernel_size=2, stride=2, padding=0, dilation=1, ceil_mode=True)
          (downsample): Sequential(
            (0): Conv1d(16, 24, kernel_size=(1,), stride=(1,), bias=False)
            (1): BatchNorm1d(24, eps=1e-05, momentum=0.1, affine=True, track_running_stats=True)
          )
          (dropout): Dropout1d(p=0.4, inplace=False)
          (conv1): Conv1d(16, 24, kernel_size=(5,), stride=(1,), padding=(2,), bias=False)
          (bn1): BatchNorm1d(24, eps=1e-05, momentum=0.1, affine=True, track_running_stats=True)
          (conv2): Conv1d(24, 24, kernel_size=(5,), stride=(1,), padding=(2,), bias=False)
          (bn2): BatchNorm1d(24, eps=1e-05, momentum=0.1, affine=True, track_running_stats=True)
        )
        (1): ResidualBlock1d(
          (relu): ReLU(inplace=True)
          (maxpool): MaxPool1d(kernel_size=2, stride=2, padding=0, dilation=1, ceil_mode=True)
          (downsample): Sequential(
            (0): Conv1d(24, 32, kernel_size=(1,), stride=(1,), bias=False)
            (1): BatchNorm1d(32, eps=1e-05, momentum=0.1, affine=True, track_running_stats=True)
          )
          (dropout): Dropout1d(p=0.4, inplace=False)
          (conv1): Conv1d(24, 32, kernel_size=(5,), stride=(1,), padding=(2,), bias=False)
          (bn1): BatchNorm1d(32, eps=1e-05, momentum=0.1, affine=True, track_running_stats=True)
          (conv2): Conv1d(32, 32, kernel_size=(5,), stride=(1,), padding=(2,), bias=False)
          (bn2): BatchNorm1d(32, eps=1e-05, momentum=0.1, affine=True, track_running_stats=True)
        )
        (2): ResidualBlock1d(
          (relu): ReLU(inplace=True)
          (maxpool): MaxPool1d(kernel_size=2, stride=2, padding=0, dilation=1, ceil_mode=True)
          (downsample): Sequential(
            (0): Conv1d(32, 48, kernel_size=(1,), stride=(1,), bias=False)
            (1): BatchNorm1d(48, eps=1e-05, momentum=0.1, affine=True, track_running_stats=True)
          )
          (dropout): Dropout1d(p=0.4, inplace=False)
          (conv1): Conv1d(32, 48, kernel_size=(3,), stride=(1,), padding=(1,), bias=False)
          (bn1): BatchNorm1d(48, eps=1e-05, momentum=0.1, affine=True, track_running_stats=True)
          (conv2): Conv1d(48, 48, kernel_size=(3,), stride=(1,), padding=(1,), bias=False)
          (bn2): BatchNorm1d(48, eps=1e-05, momentum=0.1, affine=True, track_running_stats=True)
        )
        (3): ResidualBlock1d(
          (relu): ReLU(inplace=True)
          (maxpool): MaxPool1d(kernel_size=2, stride=2, padding=0, dilation=1, ceil_mode=True)
          (downsample): Sequential(
            (0): Conv1d(48, 64, kernel_size=(1,), stride=(1,), bias=False)
            (1): BatchNorm1d(64, eps=1e-05, momentum=0.1, affine=True, track_running_stats=True)
          )
          (dropout): Dropout1d(p=0.4, inplace=False)
          (conv1): Conv1d(48, 64, kernel_size=(3,), stride=(1,), padding=(1,), bias=False)
          (bn1): BatchNorm1d(64, eps=1e-05, momentum=0.1, affine=True, track_running_stats=True)
          (conv2): Conv1d(64, 64, kernel_size=(3,), stride=(1,), padding=(1,), bias=False)
          (bn2): BatchNorm1d(64, eps=1e-05, momentum=0.1, affine=True, track_running_stats=True)
        )
        (4): ResidualBlock1d(
          (relu): ReLU(inplace=True)
          (maxpool): MaxPool1d(kernel_size=2, stride=2, padding=0, dilation=1, ceil_mode=True)
          (downsample): Sequential(
            (0): Conv1d(64, 96, kernel_size=(1,), stride=(1,), bias=False)
            (1): BatchNorm1d(96, eps=1e-05, momentum=0.1, affine=True, track_running_stats=True)
          )
          (dropout): Dropout1d(p=0.4, inplace=False)
          (conv1): Conv1d(64, 96, kernel_size=(3,), stride=(1,), padding=(1,), bias=False)
          (bn1): BatchNorm1d(96, eps=1e-05, momentum=0.1, affine=True, track_running_stats=True)
          (conv2): Conv1d(96, 96, kernel_size=(3,), stride=(1,), padding=(1,), bias=False)
          (bn2): BatchNorm1d(96, eps=1e-05, momentum=0.1, affine=True, track_running_stats=True)
        )
      )
      (temporal_embed): RnnBlock(
        (rnn): GRU(96, 256, batch_first=True)
      )
    )
    (encoder): SignalEncoder50hz(
      (projection): Conv1d(1, 16, kernel_size=(5,), stride=(1,), padding=(2,))
      (downsample): Sequential(
        (0): ResidualBlock1d(
          (relu): ReLU(inplace=True)
          (maxpool): MaxPool1d(kernel_size=2, stride=2, padding=0, dilation=1, ceil_mode=True)
          (downsample): Sequential(
            (0): Conv1d(16, 24, kernel_size=(1,), stride=(1,), bias=False)
            (1): BatchNorm1d(24, eps=1e-05, momentum=0.1, affine=True, track_running_stats=True)
          )
          (dropout): Dropout1d(p=0.4, inplace=False)
          (conv1): Conv1d(16, 24, kernel_size=(5,), stride=(1,), padding=(2,), bias=False)
          (bn1): BatchNorm1d(24, eps=1e-05, momentum=0.1, affine=True, track_running_stats=True)
          (conv2): Conv1d(24, 24, kernel_size=(5,), stride=(1,), padding=(2,), bias=False)
          (bn2): BatchNorm1d(24, eps=1e-05, momentum=0.1, affine=True, track_running_stats=True)
        )
        (1): ResidualBlock1d(
          (relu): ReLU(inplace=True)
          (maxpool): MaxPool1d(kernel_size=2, stride=2, padding=0, dilation=1, ceil_mode=True)
          (downsample): Sequential(
            (0): Conv1d(24, 32, kernel_size=(1,), stride=(1,), bias=False)
            (1): BatchNorm1d(32, eps=1e-05, momentum=0.1, affine=True, track_running_stats=True)
          )
          (dropout): Dropout1d(p=0.4, inplace=False)
          (conv1): Conv1d(24, 32, kernel_size=(5,), stride=(1,), padding=(2,), bias=False)
          (bn1): BatchNorm1d(32, eps=1e-05, momentum=0.1, affine=True, track_running_stats=True)
          (conv2): Conv1d(32, 32, kernel_size=(5,), stride=(1,), padding=(2,), bias=False)
          (bn2): BatchNorm1d(32, eps=1e-05, momentum=0.1, affine=True, track_running_stats=True)
        )
        (2): ResidualBlock1d(
          (relu): ReLU(inplace=True)
          (maxpool): MaxPool1d(kernel_size=2, stride=2, padding=0, dilation=1, ceil_mode=True)
          (downsample): Sequential(
            (0): Conv1d(32, 48, kernel_size=(1,), stride=(1,), bias=False)
            (1): BatchNorm1d(48, eps=1e-05, momentum=0.1, affine=True, track_running_stats=True)
          )
          (dropout): Dropout1d(p=0.4, inplace=False)
          (conv1): Conv1d(32, 48, kernel_size=(3,), stride=(1,), padding=(1,), bias=False)
          (bn1): BatchNorm1d(48, eps=1e-05, momentum=0.1, affine=True, track_running_stats=True)
          (conv2): Conv1d(48, 48, kernel_size=(3,), stride=(1,), padding=(1,), bias=False)
          (bn2): BatchNorm1d(48, eps=1e-05, momentum=0.1, affine=True, track_running_stats=True)
        )
        (3): ResidualBlock1d(
          (relu): ReLU(inplace=True)
          (maxpool): MaxPool1d(kernel_size=2, stride=2, padding=0, dilation=1, ceil_mode=True)
          (downsample): Sequential(
            (0): Conv1d(48, 64, kernel_size=(1,), stride=(1,), bias=False)
            (1): BatchNorm1d(64, eps=1e-05, momentum=0.1, affine=True, track_running_stats=True)
          )
          (dropout): Dropout1d(p=0.4, inplace=False)
          (conv1): Conv1d(48, 64, kernel_size=(3,), stride=(1,), padding=(1,), bias=False)
          (bn1): BatchNorm1d(64, eps=1e-05, momentum=0.1, affine=True, track_running_stats=True)
          (conv2): Conv1d(64, 64, kernel_size=(3,), stride=(1,), padding=(1,), bias=False)
          (bn2): BatchNorm1d(64, eps=1e-05, momentum=0.1, affine=True, track_running_stats=True)
        )
        (4): ResidualBlock1d(
          (relu): ReLU(inplace=True)
          (maxpool): MaxPool1d(kernel_size=2, stride=2, padding=0, dilation=1, ceil_mode=True)
          (downsample): Sequential(
            (0): Conv1d(64, 96, kernel_size=(1,), stride=(1,), bias=False)
            (1): BatchNorm1d(96, eps=1e-05, momentum=0.1, affine=True, track_running_stats=True)
          )
          (dropout): Dropout1d(p=0.4, inplace=False)
          (conv1): Conv1d(64, 96, kernel_size=(3,), stride=(1,), padding=(1,), bias=False)
          (bn1): BatchNorm1d(96, eps=1e-05, momentum=0.1, affine=True, track_running_stats=True)
          (conv2): Conv1d(96, 96, kernel_size=(3,), stride=(1,), padding=(1,), bias=False)
          (bn2): BatchNorm1d(96, eps=1e-05, momentum=0.1, affine=True, track_running_stats=True)
        )
      )
      (temporal_embed): RnnBlock(
        (rnn): GRU(96, 256, batch_first=True)
      )
    )
    (node_attention): NodeAttention(
      (attention_layers): ModuleList(
        (0-1): 2 x AttentionBlock(
          (projection): Linear(in_features=256, out_features=256, bias=True)
          (pos_embeddings): LearnablePosEmbeddings(
            (embedding): Embedding(19, 256)
          )
          (attention): MultiheadAttention(
            (out_proj): NonDynamicallyQuantizableLinear(in_features=256, out_features=256, bias=True)
          )
          (fc): Sequential(
            (0): Linear(in_features=256, out_features=1024, bias=True)
            (1): GELU(approximate='none')
            (2): Linear(in_features=1024, out_features=256, bias=True)
          )
          (ln_0): LayerNorm()
          (ln_1): LayerNorm()
        )
      )
    )
    (pool_factor): Linear(in_features=256, out_features=1, bias=True)
    (decoder): Linear(in_features=256, out_features=6, bias=True)
    (temperature): Sequential(
      (0): Linear(in_features=256, out_features=1, bias=True)
      (1): Softplus(beta=1, threshold=20)
    )
  )
  (eeg_spc_model): SpectrogramCnnModel(
    (projection): Sequential(
      (0): Conv2d(1, 16, kernel_size=(3, 3), stride=(1, 1), padding=same, bias=False)
      (1): BatchNorm2d(16, eps=1e-05, momentum=0.1, affine=True, track_running_stats=True)
      (2): ReLU(inplace=True)
    )
    (encoder): Sequential(
      (0): ResidualBlock2d(
        (relu): ReLU(inplace=True)
        (maxpool): MaxPool2d(kernel_size=2, stride=2, padding=0, dilation=1, ceil_mode=True)
        (downsample): Sequential(
          (0): Conv2d(16, 32, kernel_size=(1, 1), stride=(1, 1), bias=False)
          (1): BatchNorm2d(32, eps=1e-05, momentum=0.1, affine=True, track_running_stats=True)
        )
        (dropout): Dropout2d(p=0.4, inplace=False)
        (conv1): Conv2d(16, 32, kernel_size=(3, 3), stride=(1, 1), padding=(1, 1), bias=False)
        (bn1): BatchNorm2d(32, eps=1e-05, momentum=0.1, affine=True, track_running_stats=True)
        (conv2): Conv2d(32, 32, kernel_size=(3, 3), stride=(1, 1), padding=(1, 1), bias=False)
        (bn2): BatchNorm2d(32, eps=1e-05, momentum=0.1, affine=True, track_running_stats=True)
      )
      (1): ResidualBlock2d(
        (relu): ReLU(inplace=True)
        (maxpool): MaxPool2d(kernel_size=2, stride=2, padding=0, dilation=1, ceil_mode=True)
        (downsample): Sequential(
          (0): Conv2d(32, 48, kernel_size=(1, 1), stride=(1, 1), bias=False)
          (1): BatchNorm2d(48, eps=1e-05, momentum=0.1, affine=True, track_running_stats=True)
        )
        (dropout): Dropout2d(p=0.4, inplace=False)
        (conv1): Conv2d(32, 48, kernel_size=(3, 3), stride=(1, 1), padding=(1, 1), bias=False)
        (bn1): BatchNorm2d(48, eps=1e-05, momentum=0.1, affine=True, track_running_stats=True)
        (conv2): Conv2d(48, 48, kernel_size=(3, 3), stride=(1, 1), padding=(1, 1), bias=False)
        (bn2): BatchNorm2d(48, eps=1e-05, momentum=0.1, affine=True, track_running_stats=True)
      )
      (2): ResidualBlock2d(
        (relu): ReLU(inplace=True)
        (maxpool): MaxPool2d(kernel_size=2, stride=2, padding=0, dilation=1, ceil_mode=True)
        (downsample): Sequential(
          (0): Conv2d(48, 64, kernel_size=(1, 1), stride=(1, 1), bias=False)
          (1): BatchNorm2d(64, eps=1e-05, momentum=0.1, affine=True, track_running_stats=True)
        )
        (dropout): Dropout2d(p=0.4, inplace=False)
        (conv1): Conv2d(48, 64, kernel_size=(3, 3), stride=(1, 1), padding=(1, 1), bias=False)
        (bn1): BatchNorm2d(64, eps=1e-05, momentum=0.1, affine=True, track_running_stats=True)
        (conv2): Conv2d(64, 64, kernel_size=(3, 3), stride=(1, 1), padding=(1, 1), bias=False)
        (bn2): BatchNorm2d(64, eps=1e-05, momentum=0.1, affine=True, track_running_stats=True)
      )
      (3): ResidualBlock2d(
        (relu): ReLU(inplace=True)
        (maxpool): MaxPool2d(kernel_size=2, stride=2, padding=0, dilation=1, ceil_mode=True)
        (downsample): Sequential(
          (0): Conv2d(64, 128, kernel_size=(1, 1), stride=(1, 1), bias=False)
          (1): BatchNorm2d(128, eps=1e-05, momentum=0.1, affine=True, track_running_stats=True)
        )
        (dropout): Dropout2d(p=0.4, inplace=False)
        (conv1): Conv2d(64, 128, kernel_size=(3, 3), stride=(1, 1), padding=(1, 1), bias=False)
        (bn1): BatchNorm2d(128, eps=1e-05, momentum=0.1, affine=True, track_running_stats=True)
        (conv2): Conv2d(128, 128, kernel_size=(3, 3), stride=(1, 1), padding=(1, 1), bias=False)
        (bn2): BatchNorm2d(128, eps=1e-05, momentum=0.1, affine=True, track_running_stats=True)
      )
      (4): ResidualBlock2d(
        (relu): ReLU(inplace=True)
        (maxpool): MaxPool2d(kernel_size=2, stride=2, padding=0, dilation=1, ceil_mode=True)
        (downsample): Sequential(
          (0): Conv2d(128, 256, kernel_size=(1, 1), stride=(1, 1), bias=False)
          (1): BatchNorm2d(256, eps=1e-05, momentum=0.1, affine=True, track_running_stats=True)
        )
        (dropout): Dropout2d(p=0.4, inplace=False)
        (conv1): Conv2d(128, 256, kernel_size=(3, 3), stride=(1, 1), padding=(1, 1), bias=False)
        (bn1): BatchNorm2d(256, eps=1e-05, momentum=0.1, affine=True, track_running_stats=True)
        (conv2): Conv2d(256, 256, kernel_size=(3, 3), stride=(1, 1), padding=(1, 1), bias=False)
        (bn2): BatchNorm2d(256, eps=1e-05, momentum=0.1, affine=True, track_running_stats=True)
      )
    )
    (pool): AdaptiveAvgPool2d(output_size=(1, 1))
    (node_attention): NodeAttention(
      (attention_layers): ModuleList(
        (0-1): 2 x AttentionBlock(
          (projection): Linear(in_features=256, out_features=256, bias=True)
          (pos_embeddings): LearnablePosEmbeddings(
            (embedding): Embedding(4, 256)
          )
          (attention): MultiheadAttention(
            (out_proj): NonDynamicallyQuantizableLinear(in_features=256, out_features=256, bias=True)
          )
          (fc): Sequential(
            (0): Linear(in_features=256, out_features=1024, bias=True)
            (1): GELU(approximate='none')
            (2): Linear(in_features=1024, out_features=256, bias=True)
          )
          (ln_0): LayerNorm()
          (ln_1): LayerNorm()
        )
      )
    )
    (pool_factor): Linear(in_features=256, out_features=1, bias=True)
    (decoder): Linear(in_features=256, out_features=6, bias=True)
    (temperature): Sequential(
      (0): Linear(in_features=256, out_features=6, bias=True)
      (1): Softplus(beta=1, threshold=20)
    )
  )
  (spc_model): SpectrogramCnnModel(
    (projection): Sequential(
      (0): Conv2d(1, 16, kernel_size=(3, 3), stride=(1, 1), padding=same, bias=False)
      (1): BatchNorm2d(16, eps=1e-05, momentum=0.1, affine=True, track_running_stats=True)
      (2): ReLU(inplace=True)
    )
    (encoder): Sequential(
      (0): ResidualBlock2d(
        (relu): ReLU(inplace=True)
        (maxpool): MaxPool2d(kernel_size=2, stride=2, padding=0, dilation=1, ceil_mode=True)
        (downsample): Sequential(
          (0): Conv2d(16, 32, kernel_size=(1, 1), stride=(1, 1), bias=False)
          (1): BatchNorm2d(32, eps=1e-05, momentum=0.1, affine=True, track_running_stats=True)
        )
        (dropout): Dropout2d(p=0.4, inplace=False)
        (conv1): Conv2d(16, 32, kernel_size=(3, 3), stride=(1, 1), padding=(1, 1), bias=False)
        (bn1): BatchNorm2d(32, eps=1e-05, momentum=0.1, affine=True, track_running_stats=True)
        (conv2): Conv2d(32, 32, kernel_size=(3, 3), stride=(1, 1), padding=(1, 1), bias=False)
        (bn2): BatchNorm2d(32, eps=1e-05, momentum=0.1, affine=True, track_running_stats=True)
      )
      (1): ResidualBlock2d(
        (relu): ReLU(inplace=True)
        (maxpool): MaxPool2d(kernel_size=2, stride=2, padding=0, dilation=1, ceil_mode=True)
        (downsample): Sequential(
          (0): Conv2d(32, 48, kernel_size=(1, 1), stride=(1, 1), bias=False)
          (1): BatchNorm2d(48, eps=1e-05, momentum=0.1, affine=True, track_running_stats=True)
        )
        (dropout): Dropout2d(p=0.4, inplace=False)
        (conv1): Conv2d(32, 48, kernel_size=(3, 3), stride=(1, 1), padding=(1, 1), bias=False)
        (bn1): BatchNorm2d(48, eps=1e-05, momentum=0.1, affine=True, track_running_stats=True)
        (conv2): Conv2d(48, 48, kernel_size=(3, 3), stride=(1, 1), padding=(1, 1), bias=False)
        (bn2): BatchNorm2d(48, eps=1e-05, momentum=0.1, affine=True, track_running_stats=True)
      )
      (2): ResidualBlock2d(
        (relu): ReLU(inplace=True)
        (maxpool): MaxPool2d(kernel_size=2, stride=2, padding=0, dilation=1, ceil_mode=True)
        (downsample): Sequential(
          (0): Conv2d(48, 64, kernel_size=(1, 1), stride=(1, 1), bias=False)
          (1): BatchNorm2d(64, eps=1e-05, momentum=0.1, affine=True, track_running_stats=True)
        )
        (dropout): Dropout2d(p=0.4, inplace=False)
        (conv1): Conv2d(48, 64, kernel_size=(3, 3), stride=(1, 1), padding=(1, 1), bias=False)
        (bn1): BatchNorm2d(64, eps=1e-05, momentum=0.1, affine=True, track_running_stats=True)
        (conv2): Conv2d(64, 64, kernel_size=(3, 3), stride=(1, 1), padding=(1, 1), bias=False)
        (bn2): BatchNorm2d(64, eps=1e-05, momentum=0.1, affine=True, track_running_stats=True)
      )
      (3): ResidualBlock2d(
        (relu): ReLU(inplace=True)
        (maxpool): MaxPool2d(kernel_size=2, stride=2, padding=0, dilation=1, ceil_mode=True)
        (downsample): Sequential(
          (0): Conv2d(64, 128, kernel_size=(1, 1), stride=(1, 1), bias=False)
          (1): BatchNorm2d(128, eps=1e-05, momentum=0.1, affine=True, track_running_stats=True)
        )
        (dropout): Dropout2d(p=0.4, inplace=False)
        (conv1): Conv2d(64, 128, kernel_size=(3, 3), stride=(1, 1), padding=(1, 1), bias=False)
        (bn1): BatchNorm2d(128, eps=1e-05, momentum=0.1, affine=True, track_running_stats=True)
        (conv2): Conv2d(128, 128, kernel_size=(3, 3), stride=(1, 1), padding=(1, 1), bias=False)
        (bn2): BatchNorm2d(128, eps=1e-05, momentum=0.1, affine=True, track_running_stats=True)
      )
      (4): ResidualBlock2d(
        (relu): ReLU(inplace=True)
        (maxpool): MaxPool2d(kernel_size=2, stride=2, padding=0, dilation=1, ceil_mode=True)
        (downsample): Sequential(
          (0): Conv2d(128, 256, kernel_size=(1, 1), stride=(1, 1), bias=False)
          (1): BatchNorm2d(256, eps=1e-05, momentum=0.1, affine=True, track_running_stats=True)
        )
        (dropout): Dropout2d(p=0.4, inplace=False)
        (conv1): Conv2d(128, 256, kernel_size=(3, 3), stride=(1, 1), padding=(1, 1), bias=False)
        (bn1): BatchNorm2d(256, eps=1e-05, momentum=0.1, affine=True, track_running_stats=True)
        (conv2): Conv2d(256, 256, kernel_size=(3, 3), stride=(1, 1), padding=(1, 1), bias=False)
        (bn2): BatchNorm2d(256, eps=1e-05, momentum=0.1, affine=True, track_running_stats=True)
      )
    )
    (pool): AdaptiveAvgPool2d(output_size=(1, 1))
    (node_attention): NodeAttention(
      (attention_layers): ModuleList(
        (0-1): 2 x AttentionBlock(
          (projection): Linear(in_features=256, out_features=256, bias=True)
          (pos_embeddings): LearnablePosEmbeddings(
            (embedding): Embedding(4, 256)
          )
          (attention): MultiheadAttention(
            (out_proj): NonDynamicallyQuantizableLinear(in_features=256, out_features=256, bias=True)
          )
          (fc): Sequential(
            (0): Linear(in_features=256, out_features=1024, bias=True)
            (1): GELU(approximate='none')
            (2): Linear(in_features=1024, out_features=256, bias=True)
          )
          (ln_0): LayerNorm()
          (ln_1): LayerNorm()
        )
      )
    )
    (pool_factor): Linear(in_features=256, out_features=1, bias=True)
    (decoder): Linear(in_features=256, out_features=6, bias=True)
    (temperature): Sequential(
      (0): Linear(in_features=256, out_features=6, bias=True)
      (1): Softplus(beta=1, threshold=20)
    )
  )
  (node_attention): NodeAttention(
    (attention_layers): ModuleList(
      (0-1): 2 x AttentionBlock(
        (projection): Linear(in_features=256, out_features=256, bias=True)
        (pos_embeddings): LearnablePosEmbeddings(
          (embedding): Embedding(27, 256)
        )
        (attention): MultiheadAttention(
          (out_proj): NonDynamicallyQuantizableLinear(in_features=256, out_features=256, bias=True)
        )
        (fc): Sequential(
          (0): Linear(in_features=256, out_features=1024, bias=True)
          (1): GELU(approximate='none')
          (2): Linear(in_features=1024, out_features=256, bias=True)
        )
        (ln_0): LayerNorm()
        (ln_1): LayerNorm()
      )
    )
  )
  (pool_factor): Linear(in_features=256, out_features=1, bias=True)
  (temperature): Sequential(
    (0): Linear(in_features=256, out_features=1, bias=True)
    (1): Softplus(beta=1, threshold=20)
  )
  (decode): Linear(in_features=256, out_features=6, bias=True)
)
2024-04-21 09:26:47 [[38;5;39mINFO[0m]: Parameter count: 10176086
2024-04-21 09:26:47 [[38;5;39mINFO[0m]: Instantiating Optimizer
2024-04-21 09:26:49 [[38;5;39mINFO[0m]: Instantiating Dataloaders
2024-04-21 09:26:54 [[38;5;39mINFO[0m]: Resuming from checkpoint 'output/multimodal_stage_1_fold_0/model_final.pt'.
2024-04-21 09:26:54 [[38;5;39mINFO[0m]: Training with the multimodal task
…
